…
    "from tensorflow.keras.layers import Activation"
   ]
  },
  {
   "cell_type": "code",
   "execution_count": 19,
   "id": "d38aae88-4660-49b6-acf8-a04700348e5e",
   "metadata": {},
   "outputs": [
    {
     "name": "stdout",
     "output_type": "stream",
     "text": [
      "Deleting \"model\"\n",
      "Model: \"sequential_1\"\n",
      "_________________________________________________________________\n",
      " Layer (type)                Output Shape              Param #   \n",
      "=================================================================\n",
      " conv2d_3 (Conv2D)           (None, 78, 78, 32)        896       \n",
      "                                                                 \n",
      " max_pooling2d_2 (MaxPooling  (None, 39, 39, 32)       0         \n",
      " 2D)                                                             \n",
      "                                                                 \n",
      " conv2d_4 (Conv2D)           (None, 37, 37, 64)        18496     \n",
      "                                                                 \n",
      " max_pooling2d_3 (MaxPooling  (None, 18, 18, 64)       0         \n",
      " 2D)                                                             \n",
      "                                                                 \n",
      " conv2d_5 (Conv2D)           (None, 16, 16, 64)        36928     \n",
      "                                                                 \n",
      " flatten_1 (Flatten)         (None, 16384)             0         \n",
      "                                                                 \n",
      " dense_2 (Dense)             (None, 64)                1048640   \n",
      "                                                                 \n",
      " dense_3 (Dense)             (None, 1)                 65        \n",
      "                                                                 \n",
      "=================================================================\n",
      "Total params: 1,105,025\n",
      "Trainable params: 1,105,025\n",
      "Non-trainable params: 0\n",
      "_________________________________________________________________\n"
     ]
    }
   ],
   "source": [
    "# delete existing models\n",
…
    "#### **2.3 Update the simple CNN using Adam**"
   ]
  },
  {
   "cell_type": "code",
   "execution_count": 32,
   "id": "8788c241-741b-47a5-a5fd-8c3ea6c7ab24",
   "metadata": {},
   "outputs": [
    {
     "name": "stdout",
     "output_type": "stream",
     "text": [
      "Deleting \"model\"\n",
      "Model: \"sequential_3\"\n",
      "_________________________________________________________________\n",
      " Layer (type)                Output Shape              Param #   \n",
      "=================================================================\n",
      " conv2d_9 (Conv2D)           (None, 78, 78, 32)        896       \n",
      "                                                                 \n",
      " max_pooling2d_7 (MaxPooling  (None, 39, 39, 32)       0         \n",
      " 2D)                                                             \n",
      "                                                                 \n",
      " conv2d_10 (Conv2D)          (None, 37, 37, 64)        18496     \n",
      "                                                                 \n",
      " max_pooling2d_8 (MaxPooling  (None, 18, 18, 64)       0         \n",
      " 2D)                                                             \n",
      "                                                                 \n",
      " conv2d_11 (Conv2D)          (None, 16, 16, 64)        36928     \n",
      "                                                                 \n",
      " max_pooling2d_9 (MaxPooling  (None, 8, 8, 64)         0         \n",
      " 2D)                                                             \n",
      "                                                                 \n",
      " dropout_1 (Dropout)         (None, 8, 8, 64)          0         \n",
      "                                                                 \n",
      " flatten_3 (Flatten)         (None, 4096)              0         \n",
      "                                                                 \n",
      " dense_6 (Dense)             (None, 128)               524416    \n",
      "                                                                 \n",
      " dense_7 (Dense)             (None, 1)                 129       \n",
      "                                                                 \n",
      "=================================================================\n",
      "Total params: 580,865\n",
      "Trainable params: 580,865\n",
      "Non-trainable params: 0\n",
      "_________________________________________________________________\n"
     ]
    }
   ],
   "source": [
    "# delete existing models\n",
…
